python/ExodusNNTrainer/temp/2_component_inv.pt (torch_old, 1262 bytes, 5 tensors)

0.weight f4 [5, 3]
0	0x3ba1a038	0.0049324296
1	0xbee09d12	-0.43869835
2	0x3e15e1af	0.14636873
3	0x3dcc45c4	0.09974244
4	0xbf3570ad	-0.70875055
5	0x3dfab574	0.12241641
6	0xbec7efc9	-0.3905013
7	0x3f5aa58e	0.85408866
8	0x3ec1d56e	0.37858146
9	0x3dc2d567	0.095133595
10	0x3f11d25e	0.5696162
11	0x3dde672f	0.108595245
12	0xbf366b70	-0.71257687
13	0xbedcef2a	-0.43151218
14	0xbd0f6de9	-0.035016928

0.bias f4 [5]
0	0x3da6dec6	0.081479594
1	0x3ee09dd2	0.43870407
2	0xbf28589c	-0.6576021
3	0x3ebb612b	0.3659757
4	0x3f2d7c60	0.67767906

2.weight f4 [5, 5]
0	0xbe9a3ad9	-0.30123022
1	0xbdd07989	-0.10179431
2	0x3ecd804d	0.40136948
3	0x3e2a108d	0.16607876
4	0xbcc4c295	-0.024018565
5	0xbe7de3ed	-0.24793978
6	0xbe5140ff	-0.2043495
7	0x3f057c2a	0.52142584
8	0x3e8a72bb	0.27040657
9	0xbebbe9be	-0.3670177
10	0x3d95cc5c	0.07314369
11	0x3eac59ec	0.33662355
12	0x3e041958	0.12900293
13	0xbe9e31e9	-0.30897453
14	0x3ed9c228	0.42530942
15	0x3dc555a1	0.09635473
16	0xbeb5f8df	-0.35541436
17	0x3dee5c77	0.1163873
18	0xbd99d361	-0.075110205
19	0x3d185bb3	0.037196826
20	0x3d45925a	0.048235275
21	0x3e226c54	0.15861636
22	0xbe9a7b14	-0.30172026
23	0xbe826e00	-0.25474548
24	0xbe6bf951	-0.23044325

2.bias f4 [5]
0	0xbf0553de	-0.52081096
1	0xbe779bd8	-0.24180543
2	0x3d89ef6a	0.06735118
3	0x3e5c5b77	0.21519266
4	0x3d1502fc	0.0363798

4.weight f4 [1, 5]
0	0xbe85d4fd	-0.2613906
1	0xbf30e805	-0.69104034
2	0x3dc698ed	0.09697137
3	0xbe365be8	-0.17808497
4	0x3d9cd1bc	0.07657191
