python/ExodusNNTrainer/temp/2_component_inv.pt (torch_old, 1262 bytes, 5 tensors)

0.weight f4 [5, 3]
0	0xbee85874	-0.45379984
1	0xbe236459	-0.15956248
2	0x3ecef488	0.40420938
3	0x3eb45232	0.3521896
4	0xbecf5b37	-0.4049928
5	0xbbca2d85	-0.006169977
6	0xbf09f2dd	-0.53886205
7	0xbe32a02e	-0.17443916
8	0x3eed4cfc	0.46347797
9	0x3e93a914	0.28839934
10	0x3e366eba	0.17815676
11	0x3d336180	0.043794155
12	0x3edaebad	0.4275793
13	0x3ecbc3cb	0.39797816
14	0x3f0a64f5	0.540603

0.bias f4 [5]
0	0x3ef46677	0.47734424
1	0xbf052e4b	-0.5202376
2	0x3d1140e6	0.035462283
3	0xbe117471	-0.14204575
4	0x3ee644fa	0.449745

2.weight f4 [5, 5]
0	0x3a5fe398	0.0008540689
1	0xbd7ac453	-0.061222386
2	0xbd8b2446	-0.06794028
3	0xbe926097	-0.28589317
4	0xbed653ba	-0.41860753
5	0x3e4de680	0.2010746
6	0x3e882b64	0.26595604
7	0xbe3ed924	-0.1863752
8	0xbd65d725	-0.05611338
9	0x3e6487bf	0.22317408
10	0x3e0a3f46	0.135007
11	0x3e50d25f	0.2039275
12	0x3e6194aa	0.22029367
13	0xbe1c2b57	-0.15250908
14	0x3ee576ec	0.44817293
15	0x3e86bc16	0.26315373
16	0xbe30413c	-0.17212385
17	0xbdaf795a	-0.08568068
18	0xbec18e84	-0.37804043
19	0xbee2a801	-0.44268802
20	0xbe56944e	-0.20955011
21	0xbe6011c5	-0.21881779
22	0xbe0e57e6	-0.13900718
23	0xbeb382ec	-0.35060823
24	0x3edd886d	0.43268147

2.bias f4 [5]
0	0x3d24f58a	0.040273227
1	0xbed24c7d	-0.4107398
2	0x3ecfbe3d	0.40574828
3	0xbe5361a0	-0.2064271
4	0x3e5bb8fc	0.21457285

4.weight f4 [1, 5]
0	0x3dd55292	0.1041614
1	0xbe8600e7	-0.26172563
2	0x3e993ef9	0.29930857
3	0xbec55934	-0.3854462
4	0xbd7d1b66	-0.061793707
